extension_project/website/data.pth (torch, 39447 bytes, 6 tensors)

l1.weight f4 [8, 739]
00000000: 3679 863f 268c 873f 2840 a93f 78ce 2c3f
00000010: 4ab2 6a3f 3ecd 9ebf 7c98 31bf 621a 6f3e
00000020: 158e 193c 4716 7e3f 7af5 2c3f ba1a 803f
00000030: 8154 923e 5c45 c93d 405b 823f c152 9d3f
00000040: f39c ee3f b8ea 45bf c9bc 1bc0 0e11 aabe
00000050: 4450 ce3e e6e3 25bf 0491 34bf 2ae9 453f
00000060: dadf 033f 9eac de3f 0038 6f3c 150c 0b40
00000070: 63c9 04c0 ef19 9ebf cc71 67bf d60c 1640
00000080: fbd6 773f c9fa b33e b9ad 8c3f 3d33 6f3d
00000090: 34f4 3a40 db63 383f a8d4 9f3e a8ab cd3f
000000a0: e765 ce3f ec97 cf3f d4d4 c5bf 9b80 1240
000000b0: c95b 363e 8c2a 0d3f 5c5a 2bc0 0036 273f
000000c0: ad26 b8be 7855 523f 2292 33bf 71ba 1940
000000d0: f07f 46be 4139 723f b9d9 8abf 4b0b a73f
000000e0: 114e b83e 2779 0040 5e01 6940 e904 dbbd
000000f0: 270e 1e40 a28c 933e 6e08 ab3f 1a89 78bd
00000100: 8664 52bf 21c8 d63e a0b4 da3f 7df4 a4bb
00000110: 884e ca3c d1b9 2a3f 2d82 cc3f 2c7f 2c3f
00000120: 9467 debe e8b9 1c3f ce81 30bf 5458 053f
00000130: 3ee4 0cbd a0d1 de3e e2e8 b03f 7114 da3e
00000140: ee6f 313f bc79 10bf 90de ff3f b684 e2bf
00000150: 60af 993f 8a4b c93f 5618 4bbc 8e29 b5bd
00000160: c45a 8abf 13a7 2abf c659 113f 7a44 0ebf
00000170: 8b2a 313f 3aaa d63f 5ac6 53bc 701b bb3d
00000180: 5147 7a3f c397 993e a09c 4dbf dff1 08be
00000190: 2d2f 27bf 62b5 d33f 8316 623e f0d8 4c3f
000001a0: dd21 7a3e 4998 b33f b6ea 8540 0900 b8bf
000001b0: bcc8 f23f 00b3 4cbf 426f c2be beaf 0e3f
000001c0: 653b ab3e 5a60 4d3f ca60 243f 0b6e cb3f
000001d0: 61f6 403e 8f5e 143f 66d9 8d3f 0d3e d43f
000001e0: 356b b63f 6b54 e73f 8d3b 043f 3fb7 0e40
000001f0: 56b9 f6be 0220 07bf e846 113f fc72 40bf
00000200: 6a09 5e3b c251 5cbf 71d7 fb3f efc9 12c0
00000210: eceb 05c0 2c7b 0d3f 5bcd 3640 ebdc f8bd
00000220: 0dc8 d7be b9b4 e13e 8995 723f 191d bf3f
00000230: d5f8 fc3f 04ef 233f 60d4 76bd 0a85 8bbf
00000240: cb62 33bf 4d93 b73e 9d57 8abc a92b bdbe
00000250: 6137 373f 94b3 bcbe 1b90 0640 43e6 85be
00000260: 088d 043f 92b8 e7be d5d0 5abf 160f dc3e
00000270: b186 8e3f e115 213d be50 c13f a42e 1440
00000280: 0e42 49bf 7bd9 4240 3d11 86bf 1ba0 b6be
00000290: 48ed 08c0 e8a6 0a40 b55e 8c3f 48d6 bd3f
000002a0: 5683 5b3f 61df b9bd 06ae d7bf 0361 b73f
000002b0: 3ccc 033f 2b91 86bf a9d7 07be 5875 9bbf
000002c0: cdda 37be 3b99 793f 2001 36be 81f1 58bc
000002d0: f1aa f13f 21e3 1540 ffc8 05be dbcc ef3f
000002e0: de1d 2dbe c9ab c23f efcd dc3e b904 cbbd
000002f0: c25a 833d 2595 5bbf 4773 84bf 35bc 643e
00000300: 4e0a 303f 59ab f8bd e867 53bc d676 8a3e
00000310: 319a 883f e59c c93f 63f7 e1be 1eaa bd3f
00000320: de68 133f 1ce5 de3f bdc8 d33f 01e5 31bf
00000330: 9fd0 31bf e5c6 6fbe 4a20 ae3e ba61 b6be
00000340: f3f6 9ebf b4cf 833e b9be d0bf ab8c 2340
00000350: 09e5 86bf 2e2f f23d 143e f83e b25f 0740
00000360: 36a3 0440 4708 933e ac8b 80bf dff7 c53f
00000370: f689 fb3e 668b e4be 3427 dfbe 1cc7 973f
00000380: c71d a3be c94a 563f 432a 3a40 04ff 3fbf
00000390: d4eb 343f 314d 94bf 8454 0c3e 4058 b53f
000003a0: 6604 773f 8150 623f 43be 5bbf d2b7 89bf
000003b0: d68d 1f3f 0758 e0bf f84a 433f 8dba d23e
000003c0: e5e7 cb3e 4c9d 533f 9e6e e23e d15b 0040
000003d0: f678 dabd e5df 98bf f425 823f 1614 bb3f
000003e0: 5d6a c0be 1cf6 6e3f 6769 0c40 cbf0 2ebe
000003f0: d34b ba3f 360c 1140 29f4 0540 b51f 403f
1.0505741 1.0589645 1.3222704 0.67502546 0.916783 -1.2406385 -0.693733 0.23349908
0.009372254 0.9925274 0.6756207 1.0008156 0.28580096 0.098276824 1.0184097 1.229088
1.8641647 -0.7731128 -2.4333975 -0.33216137 0.40295613 -0.6480087 -0.70533776 0.77308905
0.51513445 1.7396429 0.014600754 2.1726124 -2.0747917 -1.2351664 -0.90408015 2.3445334
0.9681241 0.3515227 1.0990516 0.058398474 2.921155 0.7202737 0.3121693 1.606801
1.6124848 1.6218238 -1.5455575 2.2890995 0.17808451 0.55143046 -2.67739 0.6531677
-0.35967007 0.82161665 -0.70144856 2.4020045 -0.19384742 0.9461861 -1.0847694 1.3050321
0.3599706 2.0073946 3.6407084 -0.10694296 2.4696138 0.28818232 1.3361948 -0.060677625
-0.82184637 0.4194956 1.7086372 -0.005034028 0.02469565 0.66689783 1.5977226 0.6738155
-0.434384 0.6122117 -0.68948066 0.52087903 -0.034397356 0.43519306 1.382107 0.4259372
0.69311416 -0.5643575 1.9989796 -1.769675 1.2006645 1.5726178 -0.012395939 -0.088458166
-1.080895 -0.66661185 0.5677761 -0.55573237 0.6920554 1.6770699 -0.012925709 0.09136093
0.9776507 0.29998598 -0.80317116 -0.13373516 -0.6530636 1.6539729 0.220789 0.8001852
0.2442698 1.4030849 4.184901 -1.4375011 1.8967509 -0.7996063 -0.37975508 0.5573691
0.33443752 0.80225146 0.6421019 1.5892957 0.18843986 0.57956785 1.108197 1.6581436
1.4251467 1.8072637 0.5165337 2.2299345 -0.48188275 -0.52783215 0.5674882 -0.7517545
0.0033880123 -0.8606225 1.9675122 -2.293575 -2.0925245 0.5526607 2.856284 -0.12151512
-0.42144814 0.44083193 0.9475942 1.4930755 1.9763438 0.64036584 -0.06026113 -1.0899975
-0.7007262 0.3585457 -0.01688748 -0.36947373 0.71568877 -0.36855757 2.1025455 -0.26152238
0.51777697 -0.45258003 -0.854749 0.4298026 1.1134855 0.039327506 1.5102766 2.3153467
-0.78616416 3.044524 -1.0474011 -0.35669026 -2.1394825 2.1664371 1.0966402 1.4831018
0.8574728 -0.09075809 -1.6849983 1.4326481 0.5148351 -1.0513052 -0.13265862 -1.2145185
-0.1795456 0.97499436 -0.17773867 -0.013241173 1.8880292 2.3419878 -0.13064955 1.8734392
-0.16905925 1.5208675 0.43125865 -0.0991301 0.06413795 -0.8577445 -1.034768 0.2233742
0.68765724 -0.12142057 -0.012903191 0.2704379 1.0672055 1.5751005 -0.44134054 1.4817541
0.5758189 1.7413669 1.6545635 -0.6949006 -0.69458956 -0.23415716 0.3400901 -0.35621434
-1.2419113 0.25744402 -1.6308204 2.5554607 -1.0538646 0.11825405 0.48484862 2.1152158
2.0724616 0.28717253 -1.0042624 1.5466269 0.49128693 -0.44637603 -0.43584597 1.1857638
-0.31858656 0.83707863 2.9088295 -0.749985 0.70672345 -1.1586057 0.13704115 1.4167557
0.96491086 0.8840409 -0.8583719 -1.0759223 0.623258 -1.7526864 0.7628627 0.41157952
0.3982536 0.8266189 0.4422502 2.005604 -0.10667603 -1.1943327 1.0167832 1.4615505
-0.3758115 0.93344283 2.1939332 -0.17084043 1.455439 2.2663703 2.0930274 0.7504838

l1.bias f4 [8]
00000000: 0a83 d73e 3057 8e3e 31f8 723f e0a4 163f
00000010: c53b eb3e 6bd7 103f d169 8f3f cdac c23e
0.42092162 0.27800894 0.9490996 0.5884533 0.45944038 0.565787 1.1204168 0.38022462

l2.weight f4 [8, 8]
00000000: dba9 8d40 8758 f73f 6e72 2440 d6a0 ae40
00000010: 7bdf 99bf 4eb3 723f dc0a 753f 4bbf 22c0
00000020: cda6 a4be 7e92 aebe cafd 81be 749d 8ebe
00000030: 3412 40be 30c7 29bd 8c71 2abe 4178 2ebe
00000040: 971d 3abf 5b84 03c0 606a 1e40 bd92 3240
00000050: a858 5c3f 32a8 f23f ffab 60bf b856 a33f
00000060: a297 1140 0c17 e73f 0449 41be 8e45 01c0
00000070: 25d7 c93f 8943 ccbf b1e0 11bf 6a68 0340
00000080: 60fa a6be bef8 1bbc d2bb 8dbc 03c8 72be
00000090: 396e afbd b9ac c83d f28f bdbe 9499 af3d
000000a0: 56a4 a3bf b4d5 2cbf 9e42 1f40 01fb 57be
000000b0: 5414 ff3f 60ff 0c3f c848 2240 fa0c 00c0
000000c0: 865e 803f d94f cebf 49df 0940 6174 04bf
000000d0: 42f6 53bf 9256 2dc0 1b6c 0f40 6bcd d23f
000000e0: f6c7 91be a996 f03d d467 b2bd a2f7 40be
000000f0: a010 c0bd ea55 cb3d 97e2 0ebe 18c0 73bd
4.4269843 1.9323891 2.5694842 5.4571333 -1.2021326 0.9480485 0.95719695 -2.5429256
-0.3215851 -0.3409614 -0.25388938 -0.27854502 -0.18756944 -0.041449726 -0.16644877 -0.1703806
-0.727014 -2.0549533 2.4752426 2.7902062 0.8607278 1.8957579 -0.87762445 1.276084
2.27488 1.8053908 -0.1887551 -2.0198703 1.5768782 -1.595811 -0.56983477 2.053248
-0.32612896 -0.009519754 -0.017301474 -0.23709111 -0.08565945 0.09798569 -0.37023884 0.085742146
-1.2784526 -0.67513585 2.488441 -0.21091844 1.9928079 0.5507717 2.5356922 -2.000792
1.0028846 -1.6118118 2.1542532 -0.5174008 -0.82797635 -2.7084088 2.2409732 1.6468939
-0.2847287 0.11747486 -0.0871121 -0.18844464 -0.09378171 0.09928496 -0.13953625 -0.059509367

l2.bias f4 [8]
00000000: 0fda 0b3f 8ee7 8ebe fd7e eebf bf6f c8be
00000010: 9066 96be 91d6 133f 7f3a 3a3f 206d adbe
0.54629606 -0.27911037 -1.8632504 -0.39147756 -0.29375124 0.5774928 0.7274551 -0.33872318

l3.weight f4 [48, 8]
00000000: 0dae a33e 7f12 983e 7224 dcc0 7c9a 1abf
00000010: 8e1b ccbe b6ce edc0 4430 f13e 7018 0b3e
00000020: 0d18 4d3e 3ae2 243e 7ce9 ffc0 eae5 e7bf
00000030: 319b 813e 5681 8fbe ee44 003f 9413 90bd
00000040: c0de bb3e 2030 3ebe 7879 35c1 32ee 8dbf
00000050: cf8d bb3c 1b96 bfbf 3f66 88bd a840 a53d
00000060: af7b 5d3f f005 683d 94e1 e6bf 6848 9bc0
00000070: ec52 dc3c e0e7 b3bf 605f e7be d6b5 513e
00000080: f922 5fc0 a564 06be 3b64 90bf 1190 9ec0
00000090: 5d02 47be 2512 3240 f8a2 d9bf 0cdb c9bd
000000a0: cce2 9e3f 5b3b 8a3e 967e 74c0 4e36 65c0
000000b0: 1435 c3be 087e 57be 6743 49c0 df03 03ba
000000c0: a62b 01bf c75d 59be fb25 68c0 38f2 6fc0
000000d0: d5e3 983e 766d a13f 41af 3a3f 7ed9 58be
000000e0: fdd8 613d 448d b53d f355 0cc0 5cb5 21c0
000000f0: b499 21be 3132 9ebf 7563 833f b25a 773e
00000100: d645 b93f acc7 e2bd ec4f 23c0 60fb 83c0
00000110: 7c86 f3bd 560a 70c0 7caa 8fc0 143c bdbd
00000120: b3d3 d7bf 248f 03be 738c 183f 4d66 b6c0
00000130: 311d 84bd 10c4 843e c379 d43e 0046 d83d
00000140: dc03 723f b353 863e b22e ebbf 4000 18c1
00000150: 8937 cb3d 9e05 39bf 1b0e 43bf 812b 4b3d
00000160: b386 4e3e 6ab4 3c3e 674c 16c1 66db 81c0
00000170: bb9d 83be 26c2 9ac0 cccd 5d40 6fc0 893e
00000180: bcc3 673f 2eca 5c3e 6182 04c1 3968 9ec0
00000190: 6343 073e d369 b23f 823f a4bf 1bff 8bbe
000001a0: 3a14 b4be c05c 393d 1eb4 dcc0 5cc3 71bf
000001b0: f847 a63d fbee d43f 87db 81bf 8453 8ebd
000001c0: 703e bb3e 68cb b93d 9a2c c6bf 0011 49c0
000001d0: f5c7 d6be 7a14 ffc0 f1f7 ca3f af8b 05be
000001e0: 53cb 8ebf a76b 9a3e 3bee a5bf d580 f0c0
000001f0: 9ef8 57be 6ad8 983f 5088 243f 6c80 e93b
00000200: dd0e 0e40 30fe 65bd ba1d ffc0 add1 97c0
00000210: b87a 8f3e fc2d f2bf 1da8 89c0 c227 d63a
00000220: 7a19 653f 7e82 5f3e 4c39 93c0 181a 3dc0
00000230: 0dc3 5e3d 6b5d b4c0 dac5 b53f 7876 073e
00000240: 550b f9be b8da 9cbe a128 403e 0992 19c1
00000250: 79c7 483e bc51 87bf 0489 5b3f a1d3 15bc
00000260: e4b1 783f a025 923c be18 0ec1 e94b 02c0
00000270: 0a63 64be 1fd4 703f 427e 98c0 ae80 9abe
00000280: ee6f 43bf d302 aa3e bcc6 f6bf 0240 8ac0
00000290: c443 99be 2eaa 893e d090 bf3f ba53 063e
000002a0: bb40 4cbf 4e01 41be 52d6 13c1 5d6e 7ac0
000002b0: 8581 7ebe 4d37 b13f 403f f83f 58bb 83bd
000002c0: 7aa3 5dc0 926a 10be 8c0e 0ac1 6507 2fc0
000002d0: c69a 2d3e 2cc9 2b40 263a 1c40 a9a2 45be
000002e0: 0d4b 773f 064a 613e 057a a0c0 745b 84c0
000002f0: eafa b5be 295e c7bf 5b80 283f 583c bd3d
00000300: ffb9 61bf 4162 983e b134 9f3e c8ea ae3e
00000310: db24 1c3e 5acc 59bf e68f 0fbf 529a 4d3e
00000320: 5ad8 eb3d c80e 543d 7c85 75bf 19b0 4bc0
00000330: ecee 1cbe 496b 153e 49a6 febf a490 45be
00000340: 4cf0 963f eb72 2ebe 5e20 5ec0 440d 2ac0
00000350: c562 163c d30a 89c0 4634 ecbe 2593 573d
00000360: b3dd a3bf 0294 15be edb2 0dc0 506b 9ac0
00000370: 5aee 9b3e b0cc d1be 58b2 3140 c29f 273e
00000380: 6532 2ebf e627 433e 9d91 abbf 7dcb bcc0
00000390: 69e9 aabe 32e5 fe3f fedf 4cc0 7c74 b4bd
000003a0: ef72 43bf e0a2 97bd c8f8 9d3e d910 b03e
000003b0: 7f07 493e 99f4 64bf f2a9 52bf 9614 043e
000003c0: c5fd b1c0 d3d8 9d3e 6483 c4c0 351f 1fc0
000003d0: c5fe febe 63ab b4c0 0fee 4440 d824 02bd
000003e0: 73b3 6ec0 4127 46be 253a 00c0 b8c2 49c0
000003f0: 1dc0 28be 6667 c33f 5e27 1040 4288 343e
0.31968728 0.2970161 -6.879449 -0.60391974 -0.39864773 -7.4314833 0.47107136 0.13583541
0.20028706 0.16101924 -7.9972515 -1.8117039 0.25313714 -0.28028363 0.5010518 -0.07034984
0.36693382 -0.18573046 -11.342155 -1.1088316 0.022894768 -1.4967684 -0.06660127 0.08068973
0.8651685 0.056646287 -1.8037591 -4.8525887 0.026895009 -1.4055138 -0.45189953 0.20479521
-3.4865096 -0.1312433 -1.1280588 -4.955086 -0.19434495 2.7823575 -1.7002859 -0.09856233
1.2412963 0.2699841 -3.8202262 -3.5814395 -0.38126433 -0.21044171 -3.144739 -0.000499783
-0.5045723 -0.2122718 -3.6273181 -3.7491589 0.29861322 1.261153 0.72923666 -0.21176717
0.055138577 0.08864835 -2.192746 -2.5266943 -0.1578129 -1.2359067 1.0264727 0.24155691
1.4474437 -0.11073241 -2.551753 -4.1244354 -0.11890885 -3.7506309 -4.489561 -0.092399746
-1.686148 -0.12847573 0.5958931 -5.699988 -0.0645088 0.25930834 0.41499147 0.105602264
0.9453714 0.26235732 -1.8373625 -9.500061 0.09922702 -0.72274196 -0.761934 0.049602035
0.20168571 0.18428198 -9.393653 -4.058032 -0.25706276 -4.8361998 3.4656858 0.26904628
0.9053304 0.215615 -8.281831 -4.9502225 0.132093 1.3938545 -1.2831881 -0.27343068
-0.35171682 0.04525447 -6.896987 -0.9443872 0.08119196 1.6635431 -1.014512 -0.06949523
0.36571074 0.09072 -1.5482361 -3.1416626 -0.4194943 -7.9712496 1.5856916 -0.13041566
-1.11558 0.30160257 -1.2963327 -7.5157266 -0.21090934 1.1941044 0.64270496 0.007125905
2.2196572 -0.056150615 -7.9723787 -4.744345 0.28023314 -1.8920283 -4.3017716 0.0016338753
0.89492 0.21827123 -4.6007442 -2.9547176 0.054385234 -5.6364036 1.4201005 0.13228786
-0.48641458 -0.3063562 0.18765499 -9.598153 0.19607343 -1.0571818 0.85755944 -0.009144695
0.9714644 0.017840207 -8.881041 -2.0358832 -0.22303405 0.9407367 -4.7654123 -0.301763
-0.76342666 0.3320528 -1.9279399 -4.3203135 -0.29934514 0.2688765 1.4966068 0.13117877
-0.7978627 -0.18848154 -9.239824 -3.912986 -0.24854095 1.3845001 1.9394302 -0.06432217
-3.4631028 -0.14103153 -8.6285515 -2.7348263 0.16953573 2.6841536 2.441049 -0.19300331
0.96598893 0.22000894 -5.014895 -4.1361637 -0.35542995 -1.557561 0.65820855 0.09240025
-0.8817443 0.29762462 0.31094888 0.341635 0.15248434 -0.8507744 -0.56078947 0.200784
0.11515875 0.05177191 -0.95906806 -3.1826231 -0.15325516 0.14591707 -1.9894496 -0.19293457
1.1792083 -0.17036025 -3.4707255 -2.6570597 0.009178822 -4.2825713 -0.4613363 0.052630562
-1.2802032 -0.14607242 -2.2140458 -4.8255997 0.30455285 -0.40976477 2.7765102 0.16369537
-0.68045646 0.19058189 -1.3403813 -5.89984 -0.33381203 1.9913695 -3.2011714 -0.0881128
-0.7634725 -0.07404113 0.30853868 0.34387854 0.19631766 -0.89435726 -0.82290566 0.12898478
-5.5622277 0.30829486 -6.141039 -2.4862797 -0.4980375 -5.645921 3.07703 -0.03177342
-3.7297027 -0.19350912 -2.0035489 -3.1525097 -0.16479535 1.526593 2.2524028 0.17630103

l3.bias f4 [48]
00000000: 802c d3c0 0d4c ccc0 4fe6 81c0 dd70 d9c0
00000010: 2e2b eac0 43fd d9c0 b315 d0c0 ab82 f1c0
00000020: 19a1 e1c0 430f c6c0 640f f0bf a050 cfbf
00000030: 548e 6f3d 1afc e5c0 d7e8 d7c0 32a1 78c0
00000040: 7402 3ac0 7963 90c0 de0a 7ac0 b1cf b9c0
00000050: b707 ddc0 ef5d f8bf 43d8 84c0 855b b1c0
00000060: db39 bf3e 6dd0 00c1 77cf ebc0 7f91 89c0
00000070: 1c9b d9c0 3a84 ba3e 42fc a9c0 15bd c9c0
00000080: 3fba c8c0 c5a2 e6c0 6b76 d3c0 ed0e 1ec0
00000090: 2369 10c1 6978 89c0 5671 fdc0 f9f3 3bc0
000000a0: a9f2 e4c0 0326 c3c0 b837 edc0 819a c6c0
000000b0: e507 c0c0 a2ff 0cc1 0803 fdc0 6453 a0c0
-6.599182 -6.3842835 -4.059364 -6.7950273 -7.317771 -6.8121657 -6.502649 -7.5472007
-7.0509152 -6.189363 -1.8754697 -1.619648 0.058485344 -7.187024 -6.747173 -3.8848386
-2.9063997 -4.5121427 -3.9069133 -5.806603 -6.9071918 -1.9403666 -4.151399 -5.542422
0.37348828 -8.050885 -7.3690753 -4.2990108 -6.8001842 0.36429006 -5.312043 -6.3043313
-6.272735 -7.2073693 -6.6082053 -2.469661 -9.025668 -4.2959485 -7.920085 -2.936766
-7.1546216 -6.09839 -7.4130516 -6.2063603 -6.0009637 -8.81241 -7.90662 -5.0101795
